layer {
  name: "_ol.x.x.x"
  type: "Input"
  top: "_ol.x.x.x"
  transform_param {
    scale: 0.00390625
  }
  input_param {
    shape {
      dim: 1
      dim: 28
      dim: 28
      dim: 1
    }
  }
}
layer {
  name: "ol.x.x.x._.x.c"
  type: "Convolution"
  bottom: "_ol.x.x.x"
  top: "ol.x.x.x._.x.c"
  convolution_param {
    num_output: 16
    bias_term: false
    pad: 2
    kernel_size: 5
    stride: 1
  }
}
layer {
  name: "ol.x.x.x._"
  type: "BatchNorm"
  bottom: "ol.x.x.x._.x.c"
  top: "ol.x.x.x._"
}
layer {
  name: "ol.x.x.x._.Scale"
  type: "Scale"
  bottom: "ol.x.x.x._"
  top: "ol.x.x.x._.Scale"
  scale_param {
    bias_term: true
  }
}
layer {
  name: "ol.x.x.x"
  type: "ReLU"
  bottom: "ol.x.x.x._.Scale"
  top: "ol.x.x.x"
}
layer {
  name: "ol.x.x"
  type: "Pooling"
  bottom: "ol.x.x.x"
  top: "ol.x.x"
  pooling_param {
    pool: MAX
    kernel_size: 2
    stride: 2
  }
}
layer {
  name: "ol.x._.x"
  type: "InnerProduct"
  bottom: "ol.x.x"
  top: "ol.x._.x"
  inner_product_param {
    num_output: 64
  }
}
layer {
  name: "ol.x._"
  type: "BatchNorm"
  bottom: "ol.x._.x"
  top: "ol.x._"
}
layer {
  name: "ol.x._.Scale"
  type: "Scale"
  bottom: "ol.x._"
  top: "ol.x._.Scale"
  scale_param {
    bias_term: true
  }
}
layer {
  name: "ol.x"
  type: "ReLU"
  bottom: "ol.x._.Scale"
  top: "ol.x"
}
layer {
  name: "ol"
  type: "InnerProduct"
  bottom: "ol.x"
  top: "ol"
  inner_product_param {
    num_output: 10
  }
}
